fa_turtlebot/src/DoubleDQN_turtlebot2/saved_model.pt (torch, 206857 bytes, 10 tensors)

fc.0.weight f4 [128, 6]
0.48478132 -0.19446583 0.33420905 -0.4871251 0.5721859 0.4006274 0.23192872 -0.34051207
0.12887157 -0.06422003 -1.3041646 -0.83310723 -0.015179475 0.4863133 -0.92280036 -0.064385474
-0.054538324 0.26880407 1.025048 -0.46176654 -0.49345505 0.17113632 -0.05502724 -0.3699368
-0.31542292 -0.3634463 0.26966885 0.22400227 0.22409518 0.21174784 0.14048488 -0.05501838
0.32441533 -0.77789736 0.08302749 0.4752968 -0.13378626 -0.023708671 0.10640238 -0.035879023
0.12745585 0.3729857 0.6075725 0.34016228 -0.25293612 -0.11160832 0.30308065 0.5285282
-0.11826893 0.23803487 -0.044170264 0.101207264 -0.78173345 0.03899455 -0.1375833 -0.29253572
-0.68447566 0.40682012 0.13782103 -0.021543417 -0.19377351 -0.29336402 -0.31282294 -0.23297703
-0.22238666 0.124389775 -0.21013506 -0.0060737375 -0.3295716 -0.09176117 -0.07471974 -0.21681967
-0.20668395 0.3144692 -0.7394576 -0.63996124 -0.83640504 -0.6521058 -0.042918783 0.1467907
0.29018432 -0.17043366 0.46682793 0.4026503 0.45207068 0.10641327 -0.15545468 0.16558118
-0.113782994 -1.356787 0.18234853 0.029563338 0.4402502 -0.42311284 0.13965654 0.7270442
0.45480356 0.59294045 0.015177937 0.0646639 -0.013978308 0.32043022 0.13410364 -0.19489035
0.10448783 -0.035511095 0.26821488 -0.246041 -0.20500591 0.43981165 0.15713654 0.20440497
-0.27052978 -0.3479441 -0.7339914 0.3605226 -0.19439289 0.33155972 -0.81754106 0.66384566
0.033827405 0.15985185 0.20819996 -0.21056955 -0.10853222 -0.22614272 -0.75925946 0.28851467
0.226347 0.254607 0.40294364 -0.25715414 0.27919436 0.32100245 0.121606305 -0.89065343
-1.092465 -0.9272806 -0.21737847 -0.8454956 0.3530934 0.28034168 0.16747868 0.12755173
0.07732652 -1.7274188 0.070084505 0.08953127 -0.11252364 0.19408384 0.2408314 0.047400374
0.027186623 0.00810078 -0.44891614 -0.055719182 -0.7957573 -0.43389863 0.19423997 0.11437956
0.38148075 -0.3249595 0.3149522 0.025396379 -0.38195974 -0.6706653 0.110419385 0.23879495
-0.3834641 0.3596527 0.16749598 0.06685511 0.5985573 -0.65847766 0.25596562 0.38612053
-0.02162659 -0.09745233 -0.44305822 0.29044318 0.072754115 0.04564095 0.23080389 -0.13063917
0.50790685 -0.17314368 -0.5264972 -0.07440219 -0.4278727 -0.07679881 0.519032 -0.0060005905
-0.0040388997 -0.23325253 -0.61729735 0.13098364 0.5165156 -0.5373139 0.30236402 0.106082894
0.046337027 0.05971192 -0.53613746 -0.19151582 -0.41288856 0.016792616 -0.30744594 -0.13813029
-0.55299973 0.11576261 -0.41685125 -0.6289898 -1.3711216 -0.6316077 0.07068146 0.36269262
0.90341425 -0.12869959 0.06914004 -0.7122255 -0.73576206 -0.39900938 -0.05616681 -0.9881687
-0.0057800612 -0.0015044698 0.2575357 0.5216111 0.39485526 -0.2133567 -0.11372208 0.27407703
0.30291885 0.35682595 -0.36925593 0.14436635 0.13503902 0.14090113 -1.084714 0.5719976
-0.41029054 0.21103346 0.040945377 0.08505674 0.26626593 -0.7438367 0.37496552 0.041731957
-0.024522016 0.039247148 0.03528114 -2.0524755 0.30601308 -0.51633584 -1.3103309 -0.0012560708
00000000: 4235 f83e 0d22 47be 731d ab3e 7668 f9be
00000010: c67a 123f 091f cd3e b97e 6d3e 9957 aebe
00000020: e9f6 033e cb85 83bd deee a6bf 8446 55bf
00000030: 55b3 78bc 0ffe f83e a53c 6cbf 88dc 83bd
00000040: 9463 5fbd b0a0 893e c634 833f aa6c ecbe
00000050: 24a6 fcbe 5c3e 2f3e 3e64 61bd 5b68 bdbe
00000060: 1d7f a1be a215 babe 0912 8a3e da60 653e
00000070: 3579 653e 6dd4 583e 45db 0f3e f45a 61bd
00000080: c419 a63e 4824 47bf 510a aa3d 1a5a f33e
00000090: 44ff 08be b038 c2bc 7ee9 d93d e2f5 12bd
000000a0: c983 023e fbf7 be3e df89 1b3f c029 ae3e
000000b0: d880 81be e792 e4bd 632d 9b3e a04d 073f
000000c0: fb36 f2bd 6abf 733e e1eb 34bd c145 cf3d
000000d0: af1f 48bf c0b8 1f3d a3e2 0cbe 3ec7 95be
000000e0: cc39 2fbf ba4a d03e f520 0d3e d27b b0bc
000000f0: 906c 46be cf33 96be 542a a0be 8891 6ebe
00000100: 54b9 63be 11c0 fe3d a52d 57be 3406 c7bb
00000110: 9cbd a8be 48ed bbbd aa06 99bd fa05 5ebe
00000120: f5a4 53be 1b02 a13e 184d 3dbf 80d4 23bf
00000130: a41e 56bf 68f0 26bf 9bcb 2fbd 4d50 163e
00000140: 0a93 943e 2986 2ebe 1204 ef3e 2e28 ce3e
00000150: cf75 e73e 33ef d93d 832f 1fbe 1d8e 293e
00000160: 0f07 e9bd 32ab adbf 93b9 3a3e d02e f23c
00000170: 7968 e13e 3fa2 d8be 2002 0f3e 921f 3a3f
00000180: 03dc e83e f2ca 173f e2ac 783c 826e 843d
00000190: 4605 65bc 6e0f a43e 7752 093e 5691 47be
000001a0: b7fd d53d 1574 11bd 7653 893e 2cf2 7bbe
000001b0: 12ed 51be fe2e e13e 67e8 203e 894f 513e
000001c0: e182 8abe bb25 b2be dce6 3bbf 6b96 b83e
000001d0: ee0e 47be 32c2 a93e 5f4a 51bf caf1 293f
000001e0: 9b8e 0a3d 34b0 233e 5f32 553e 8b9f 57be
000001f0: 2446 debd f591 67be d45e 42bf 32b8 933e
00000200: 82c7 673e d95b 823e a14e ce3e b5a9 83be
00000210: 90f2 8e3e 6f5a a43e ba0c f93d dd01 64bf
00000220: e5d5 8bbf 4362 6dbf 7698 5ebe 6672 58bf
00000230: a8c8 b43e f288 8f3e 887f 2b3e ec9c 023e
00000240: 5e5d 9e3d 0f1c ddbf 7788 8f3d 2c5c b73d
00000250: cb72 e6bd eabd 463e 829c 763e e526 423d
00000260: 7bb6 de3c 22b9 043c 56d8 e5be cc39 64bd
00000270: c0b6 4bbf f627 debe d8e6 463e d53f ea3d
00000280: 7251 c33e 1761 a6be 6a41 a13e 110c d03c
00000290: 3a90 c3be b9b0 2bbf 8f23 e23d aa86 743e
000002a0: 6855 c4be 6624 b83e 1184 2b3e 55eb 883d
000002b0: 0d3b 193f fe91 28bf ed0d 833e 97b1 c53e
000002c0: 3f2a b1bc 1695 c7bd 87d8 e2be f8b4 943e
000002d0: 1c00 953d 01f2 3a3d db57 6c3e 46c6 05be
000002e0: 2f06 023f 944c 31be 85c8 06bf 2d60 98bd
000002f0: 2112 dbbe b248 9dbd 48df 043f 9aa0 c4bb
00000300: bf58 84bb c0d9 6ebe 3307 1ebf 9320 063e
00000310: 5e3a 043f 678d 09bf 75cf 9a3e fd41 d93d
00000320: e5cb 3d3d 7c94 743d 4e40 09bf b91c 44be
00000330: 2166 d3be ab90 893c 8e69 9dbe 0772 0dbe
00000340: 6491 0dbf f314 ed3d 876d d5be 7a05 21bf
00000350: ea80 afbf 0bb1 21bf 71c1 903d d9b2 b93e
00000360: 2846 673f d3c9 03be 4b99 8d3d 6954 36bf
00000370: e75a 3cbf f54a ccbe 2b0f 66bd a0f8 7cbf
00000380: ab66 bdbb a131 c5ba b8db 833e 4e88 053f
00000390: 782a ca3e 2e7a 5abe 1fe7 e8bd d353 8c3e
000003a0: 2e18 9b3e e4b1 b63e 1d0f bdbe c6d4 133e
000003b0: ab47 0a3e 6348 103e e9d7 8abf 6f6e 123f
000003c0: 9a11 d2be 2819 583e 57b6 273d 3a32 ae3d
000003d0: 0254 883e 156c 3ebf 7bfb bf3e 21ef 2a3d
000003e0: 65e2 c8bc 9ec1 203d f582 103d c25b 03c0
000003f0: bfad 9c3e 962e 04bf ecb8 a7bf bea2 a4ba

fc.0.bias f4 [128]
-0.4664219 0.5621551 -0.13835548 0.09973439 -0.6472245 0.057618722 0.08089167 -0.34516123
0.46134344 -0.088479176 -0.3887296 0.3869895 -0.37514517 -0.5076719 0.23856935 -0.787713
-0.8826295 -0.2258228 0.13846953 0.30497718 0.46120396 -0.87607616 0.69586384 -0.5069131
0.12707438 0.658286 0.082481936 0.10878402 -0.4426071 0.74690527 -0.04792677 0.39840496
-0.1741251 0.61352813 -0.110064924 0.15756038 0.052232757 -0.30287603 0.40444756 -0.17047656
0.13642484 0.24022378 0.3655563 0.7489355 -0.028743424 0.36306062 -0.007778708 0.07345276
0.41408792 0.042323463 -0.39340842 0.6410271 0.4767546 -0.462176 0.5056983 -0.0067498554
-0.9815974 0.6722135 0.03460221 0.14879602 0.75546426 0.028173089 0.23951732 0.09927477
0.4245195 0.26702195 0.08425174 0.03390507 -0.12435107 0.41859922 -0.40033123 0.28242522
-0.4768473 -0.79728484 0.31280184 -0.25514457 -0.13027233 -0.49730784 -0.19245681 -0.78387636
0.39952636 0.6257043 0.57908463 0.29836714 0.4437504 0.81532264 -0.12866677 0.7464385
-0.15488794 -0.2600818 -0.18377993 0.3010308 -0.009959969 -0.03519057 -0.9043613 0.2667228
0.01805945 0.6424748 -0.5739196 -0.23675849 0.8467537 -0.5924184 0.402029 0.06697305
-0.095119976 0.71767896 -0.3071498 -0.29489636 0.35623723 0.4818049 -0.43872955 0.5604051
0.5700938 -0.35260963 -0.1098863 0.14042498 0.16603918 0.3093668 0.14335813 -0.8219992
-0.14859805 -0.761362 -0.35320637 0.2286514 0.7372205 0.59266645 -0.74704444 -0.16924618
00000000: dace eebe 66e9 0f3f 0fad 0dbe 8b41 cc3d
00000010: 81b0 25bf 9c01 6c3d 88aa a53d f9b8 b0be
00000020: 3535 ec3e 9234 b5bd 9107 c7be 7d23 c63e
00000030: 0713 c0be c9f6 01bf 864b 743e 8fa7 49bf
00000040: 02f4 61bf 183e 67be f5ca 0d3e f825 9c3e
00000050: ed22 ec3e 8746 60bf 2224 323f 0fc5 01bf
00000060: c91f 023e 6e85 283f 4aec a83d 28ca de3d
00000070: 669d e2be 2f35 3f3f dc4e 44bd bcfb cb3e
00000080: da4d 32be 2e10 1d3f b869 e1bd 8257 213e
00000090: 04f2 553d 9112 9bbe c013 cf3e 6891 2ebe
000000a0: f4b2 0b3e 39fd 753e 322a bb3e 3dba 3f3f
000000b0: 5477 ebbc 15e3 b93e 88e4 febb 676e 963d
000000c0: 5503 d43e 5e5b 2d3d d46c c9be 5a1a 243f
000000d0: 2e19 f43e 55a2 ecbe 7275 013f e42d ddbb
000000e0: f849 7bbf 2f16 2c3f 0cbb 0d3d fc5d 183e
000000f0: 1b66 413f 40cb e63c 0744 753e 9250 cb3d
00000100: 9f5a d93e 1ab7 883e 2d8c ac3d 0be0 0a3d
00000110: c6ab febd a352 d63e 37f8 ccbe 0a9a 903e
00000120: 5425 f4be dc1a 4cbf 9027 a03e 4fa2 82be
00000130: 1c66 05be 229f febe 6613 45be 1fac 48bf
00000140: b88e cc3e 282e 203f e43e 143f 94c3 983e
00000150: 4133 e33e fcb8 503f 39c1 03be 9816 3f3f
00000160: f29a 1ebe 7129 85be ce30 3cbe b620 9a3e
00000170: 232f 23bc fd23 10bd 3984 67bf e48f 883e
00000180: 69f1 933c 3a79 243f 65ec 12bf d170 72be
00000190: dac4 583f bba8 17bf bfd6 cd3e 2b29 893d
000001a0: 43ce c2bd cfb9 373f bd42 9dbe a8fc 96be
000001b0: ba64 b63e 22af f63e 29a1 e0be b576 0f3f
000001c0: abf1 113f 4089 b4be 120c e1bd 91cb 0f3e
000001d0: 2d06 2a3e 5365 9e3e 79cc 123e 8a6e 52bf
000001e0: 162a 18be 9fe8 42bf 77d7 b4be 9823 6a3e
000001f0: 7cba 3c3f fdb8 173f 4e3e 3fbf df4e 2dbe

fc.2.weight f4 [128, 128]
-0.029211964 -0.026886106 -0.06925047 0.010784278 -0.0047936714 -0.086541265 0.041231286 -0.12890042
-0.0820034 -0.031299647 0.018395687 -0.062099997 0.026086444 0.011393128 0.029474365 -0.03571403
0.027417528 -0.07658909 0.06226503 0.02643178 -0.071687326 0.047283232 -0.14636822 0.077548675
0.0750016 -0.07405779 0.034432057 -0.06269144 -0.039789014 0.014009661 -0.06265788 -0.058776427
-0.04586207 0.0712968 0.015199497 -0.06845393 0.05578298 0.012652754 0.015283016 0.0051508006
-0.0044207126 -0.06384974 -0.137246 -0.058144055 -0.05216399 -0.05302113 -0.012783082 -0.051743347
-0.036182653 -0.05897541 -0.03498635 -0.06702724 -0.02531676 0.05980889 0.06517099 -0.17452188
-0.010831808 0.0035089594 -0.029029856 -0.0032706205 -0.09845372 -0.097491935 -0.10172035 -0.0022713526
-0.03358286 -0.02961517 -0.062344264 -0.0875933 -0.03750573 -0.056423012 0.022436379 0.022418473
0.054717347 -0.05613154 0.07253272 0.0036190683 -0.040168695 -0.06349426 0.036708336 -0.009081415
-0.030065624 -0.08315061 -0.05559914 -0.1006904 0.016993817 -0.08555902 -0.07525114 -0.08767315
0.030353777 0.03738277 -0.008474335 -0.104719564 -0.04878146 0.0823368 0.058719877 0.0037845972
0.07288307 -0.14234802 -0.0057365615 0.06266943 -0.094772734 -0.061161075 -0.00045287475 0.02592917
-0.038471464 -0.048609838 -0.064698346 -0.07615757 -0.04444444 -0.07588719 -0.1328927 0.07977676
0.004033677 -0.011425756 0.004447137 0.038603988 -0.039852537 -0.022726478 0.04770721 -0.036581576
-0.031330917 0.0005233886 -0.06745086 -0.14797902 0.011533937 -0.059465833 -0.024494974 0.045471095
-0.71222365 0.38080508 -0.11181023 -0.10073973 -0.28441438 -0.31269073 -0.1876205 -0.43374553
0.2124953 -0.84846747 0.03283849 0.023713408 -0.15866877 -0.4982795 0.26880628 -0.81783193
-0.17503263 -0.5152867 0.18551588 -0.19130288 -0.00598804 -0.49980873 0.7407215 -0.40396136
-0.8123894 0.047656264 -0.39153868 -0.06368719 -0.6191139 0.14089814 -0.20987432 0.4435529
-0.15624116 0.018423935 0.27515253 0.094770856 0.27875555 -0.32874256 -0.21418992 -0.13504915
-0.21018367 0.05119153 -0.02270984 0.12818392 -0.09641267 0.74703795 0.19097356 -0.20705986
0.6562156 -0.013999057 -0.041179642 0.17883192 0.6551219 -0.5850262 -0.25815776 -1.1570203
-0.7492832 0.03258991 -0.10344632 -0.25814283 0.10942179 -0.1188506 0.47603983 -0.036117617
-0.08980727 0.5828472 -0.04559121 -0.28318125 0.057712395 0.42956156 0.04800967 0.2167353
-0.18030329 -0.27089956 -0.37176695 -0.5545415 0.22123736 -0.5493009 -0.27636275 -0.35796988
0.24738471 0.28767267 -0.1940389 -0.16699316 0.009595798 0.11930592 -0.37633526 0.14689194
-0.08976321 -0.23144054 -0.25029325 -0.18778233 0.09387597 -0.019448372 -0.097387 -0.33175033
-0.27934444 0.1574782 -0.27918682 0.038962252 0.5244595 0.17470631 -0.06063648 0.39771396
0.07892446 0.59903705 -0.19212715 -0.088463366 0.48217437 0.39850608 -0.29552478 -0.058574084
-0.0636492 -0.2877769 -0.2376865 0.03981146 -0.23608607 -0.47795787 -0.20510978 -0.33566573
-0.26233205 -0.8843864 -0.30868444 0.0993492 -0.063970596 0.43067718 -0.46177194 0.00502519
00000000: ee4d efbc 4040 dcbc 31d3 8dbd 8ab0 303c
00000010: 3b14 9dbb 8c3c b1bd 23e2 283d 79fe 03be
00000020: 66f1 a7bd 0f34 00bd 8db2 963c 915c 7ebd
00000030: 3db3 d53c 3eaa 3a3c 3974 f13c e048 12bd
00000040: b99a e03c beda 9cbd 9e09 7f3d 7687 d83c
00000050: ced0 92bd 10ac 413d 8de1 15be d7d1 9e3d
00000060: 709a 993d 9cab 97bd a108 0d3d 5f64 80bd
00000070: cef9 22bd c788 653c c652 80bd 8dbf 70bd
00000080: ded9 3bbd 0f04 923d 5007 793c 9331 8cbd
00000090: b27c 643d 7f4d 4f3c 9d65 7a3c 0cc8 a83b
000000a0: a0db 90bb a7c3 82bd 378a 0cbe 7628 6ebd
000000b0: e8a9 55bd af2c 59bd 2270 51bc d5f0 53bd
000000c0: 4334 14bd 3390 71bd d94d 0fbd 9445 89bd
000000d0: 1865 cfbc 2bfa 743d 5e78 853d ddb5 32be
000000e0: e577 31bc 92f6 653b 05d0 edbc e857 56bb
000000f0: 1ba2 c9bd daa9 c7bd c252 d0bd f9da 14bb
00000100: 2e8e 09bd 839b f2bc b35c 7fbd 1e64 b3bd
00000110: 9c9f 19bd d11b 67bd 7fcc b73c f2a6 b73c
00000120: 4c1f 603d 30ea 65bd 098c 943d e42d 6d3b
00000130: ee87 24bd 4709 82bd 7b5b 163d 37ca 14bc
00000140: 2f4c f6bc de4a aabd ecbb 63bd c536 cebd
00000150: 9e36 8b3c 9139 afbd 451d 9abd fb8d b3bd
00000160: 7ca8 f83c ad1e 193d f0d7 0abc 3677 d6bd
00000170: 11cf 47bd 32a0 a83d 4184 703d 0107 783b
00000180: b843 953d aec3 11be c4f9 bbbb d558 803d
00000190: 3518 c2bd 0984 7abd d26f edb9 6969 d43c
000001a0: 4194 1dbd 1c1b 47bd 9180 84bd 80f8 9bbd
000001b0: 600b 36bd be6a 9bbd 0615 08be ff61 a33d
000001c0: ef2c 843b 1833 3bbc 4ab9 913b 371f 1e3d
000001d0: 6a3c 23bd e12c babc a368 433d 90d6 15bd
000001e0: d954 00bd 0434 093a ad23 8abd d087 17be
000001f0: d7f8 3c3c 7292 73bd afa9 c8bc e63f 3a3d
00000200: 4a54 36bf e2f8 c23e c3fc e4bd a250 cebd
00000210: c39e 91be 0019 a0be 971f 40be e513 debe
00000220: 5e98 593e 2a35 59bf a781 063d 9f42 c23c
00000230: 117a 22be 7e1e ffbe faa0 893e 6f5d 51bf
00000240: c13b 33be d4e9 03bf e0f7 3d3e e7e4 43be
00000250: 5237 c4bb eee6 ffbe ed9f 3d3f 06d4 cebe
00000260: c0f8 4fbf 3733 433d c277 c8be 6e6e 82bd
00000270: 407e 1ebf 9a47 103e 4be9 56be 5e19 e33e
00000280: affd 1fbe cbed 963c cbe0 8c3e 3917 c23d
00000290: 0cb9 8e3e f250 a8be 9a54 5bbe 534a 0abe
000002a0: 633a 57be 36ae 513d fd09 babc a542 033e
000002b0: 0274 c5bd e13d 3f3f 938e 433e 8007 54be
000002c0: bffd 273f 4d5c 65bc fcab 28bd b71f 373e
000002d0: 12b6 273f 47c4 15bf 412d 84be 3e19 94bf
000002e0: 06d1 3fbf ff7c 053d aadb d3bd 4c2b 84be
000002f0: 8818 e03d f267 f3bd 7ebb f33e 11f0 13bd
00000300: e0ec b7bd 7935 153f d9bd 3abd 22fd 90be
00000310: d563 6c3d 7eef db3e caa5 443d dcef 5d3e
00000320: 6da1 38be 59b3 8abe 3d58 bebe 6ff6 0dbf
00000330: 0c8c 623e fc9e 0cbf 6b7f 8dbe d447 b7be
00000340: 6b52 7d3e d549 933e 22b2 46be 4100 2bbe
00000350: b237 1d3c aa56 f43d 04af c0be d76a 163e
00000360: c6d5 b7bd c0fe 6cbe 7026 80be 034a 40be
00000370: 0b42 c03d 3152 9fbc d672 c7bd 2edb a9be
00000380: 3c06 8fbe f741 213e 93f1 8ebe e296 1f3d
00000390: fa42 063f 36e6 323e f55d 78bd 2aa1 cb3e
000003a0: 26a3 a13d 7e5a 193f fbbc 44be 482c b5bd
000003b0: 8fdf f63e fd08 cc3e 064f 97be 61eb 6fbd
000003c0: 835a 82bd 7e57 93be 1764 73be 5711 233d
000003d0: 8cc0 71be e5b6 f4be 4c08 52be 61dc abbe
000003e0: 6350 86be 2667 62bf e30b 9ebe 9877 cb3d
000003f0: 0403 83bd b881 dc3e 5f6d ecbe 59aa a43b

fc.2.bias f4 [128]
-0.112110764 -0.037589975 -0.104414865 -0.11236755 0.4688335 0.17162086 0.44035333 -0.15480189
-0.013258767 -0.22935022 -0.011328577 -0.07162451 0.01693697 0.31350958 0.1017914 -0.056401957
-0.06909032 0.025524626 -0.01248965 -0.023023458 0.40420446 0.27404222 0.28585607 -0.069966584
0.53670913 -0.11880259 -0.12834357 -0.032159656 -0.045643512 0.16752848 0.45954958 -0.0827119
-0.35294965 0.043328326 -0.11136279 0.33941358 0.24644683 0.06306265 0.14872235 -0.26063314
0.017814208 0.2669553 0.37374854 0.23291399 -0.00091523374 0.016030772 -0.19892359 0.33506688
-0.009609655 -0.025106292 -0.11054889 0.37393382 -0.035861596 0.008764478 -0.0389904 0.016323503
0.58892125 0.020999713 -0.2991291 0.084882334 0.24819112 -0.093289495 0.026614692 0.13628557
0.21163628 0.040458668 -0.027322361 0.009750046 0.46790358 0.5713462 0.44255522 0.09437162
0.066808306 0.58864135 0.2822152 -0.08919983 0.0257584 -0.020940509 0.2838568 0.0016834632
-0.013325866 -0.033633046 -0.015267914 0.27729172 0.33318472 -0.11350656 0.54084456 0.50016266
-0.0903883 -0.111889735 -0.054544806 0.04295185 -0.005223571 -0.09411511 0.015785336 -0.14081171
0.03201977 0.026598176 -0.056111805 0.2577496 -0.104242615 0.21969302 0.41205978 0.19626138
0.017894259 -0.39008316 0.46112844 -0.012445187 -0.07055383 -0.0044166646 0.37137225 0.29940316
0.052505706 -0.2663929 0.01923783 -0.015403341 0.49295443 -0.015497539 0.12509885 -0.07683091
0.036662567 -0.08756352 -0.06397373 -0.033531494 0.18999699 -0.04111523 0.5542093 0.097258955
00000000: 549a e5bd f2f7 19bd 76d7 d5bd f520 e6bd
00000010: f20a f03e 61bd 2f3e fe75 e13e 6384 1ebe
00000020: 4d3b 59bc c9da 6abe 7f9b 39bc dfaf 92bd
00000030: 67bf 8a3c 5484 a03e 0278 d03d bd05 67bd
00000040: 3a7f 8dbd 0519 d13c 64a1 4cbc b19b bcbc
00000050: e3f3 ce3e 434f 8c3e ba5b 923e a44a 8fbd
00000060: c565 093f c64e f3bd 7f6c 03be d8b9 03bd
00000070: b1f4 3abd 968c 2b3e 154a eb3e db64 a9bd
00000080: d1b5 b4be 0b79 313d 2d12 e4bd 9ec7 ad3e
00000090: 8f5c 7c3e fe26 813d ac4a 183e b571 85be
000000a0: 1aef 913c 5dae 883e f85b bf3e 0181 6e3e
000000b0: 4cec 6fba f752 833c a0b2 4bbe e38d ab3e
000000c0: d071 1dbc b6ab cdbc 7567 e2bd 4174 bf3e
000000d0: 9ce3 12bd e398 0f3c 66b4 1fbd deb8 853c
000000e0: 8bc3 163f 9707 ac3c 7327 99be cad6 ad3d
000000f0: d025 7e3e 900e bfbd 0e07 da3c 728e 0b3e
00000100: 2eb7 583e fdb7 253d 25d3 dfbc a8be 1f3c
00000110: 0f91 ef3e bf43 123f 9996 e23e e845 c13d
00000120: cbd2 883d 33b1 163f 837e 903e 67ae b6bd
00000130: 4803 d33c 6e8b abbc ae55 913e a7a7 dc3a
00000140: bc54 5abc cec2 09bd 4626 7abc 2ef9 8d3e
00000150: 3097 aa3e 2176 e8bd ca74 0a3f a90a 003f
00000160: 801d b9bd 7226 e5bd 606a 5fbd 47ee 2f3d
00000170: 7d2a abbb 6cbf c0bd 4050 813c f230 10be
00000180: 2a27 033d 6be4 d93c 7ed5 65bd c1f7 833e
00000190: 277d d5bd 35f7 603e 80f9 d23e bef8 483e
000001a0: fb96 923c fbb8 c7be 0719 ec3e e6e6 4bbc
000001b0: 877e 90bd abb9 90bb 8124 be3e 5f4b 993e
000001c0: 3910 573d a664 88be a798 9d3c 4b5e 7cbc
000001d0: 8664 fc3e 64e9 7dbc ea19 003e 8659 9dbd
000001e0: 7d2b 163d 8154 b3bd a904 83bd 5258 09bd
000001f0: 928e 423e 7268 28bd a9e0 0d3f b42f c73d

fc.4.weight f4 [128, 128]
-0.012113657 -0.45829207 -0.0136131495 -0.1230388 0.7720305 -0.46705994 0.002471684 -0.32573658
0.084921435 0.24616648 0.05369698 -0.058235686 -0.04763267 0.45717523 -0.17521663 0.06479474
0.017425647 -0.14136712 -1.5370091 -0.081228875 -0.24863249 -0.23619035 -0.061444446 -0.044587687
-0.26992482 -0.0030413088 -0.023263332 -0.14263637 0.01365777 -0.035710115 -0.8836227 0.030137375
-0.08809446 0.083127275 0.084980816 -0.989966 -1.4056892 -0.008984517 0.07579868 -0.5363251
0.029950093 -0.77856344 -0.50203586 0.118130244 -0.045416232 0.012740506 0.52675825 0.4035951
-0.053346433 -0.07273306 0.064258784 0.07224407 0.016152421 -0.037732385 0.03016675 -0.061296165
0.027014589 -0.01896392 -0.23048803 -0.6255242 0.2719835 -0.074893735 -0.074587114 -0.25207913
-0.88518953 0.06639796 -0.005652879 0.2817727 0.03688877 0.57733643 0.09335456 -0.3498877
0.12205604 -0.38899547 0.3910832 -0.024611613 -0.15349537 -0.069982916 0.11277171 0.07063976
-0.009150302 -0.067129344 0.06360813 -0.1706754 -0.3066894 0.09082794 -0.37029886 -0.4570992
0.088968396 -0.5546481 -0.100991055 0.024914278 0.056599677 -0.22303703 0.08106402 -0.08561589
0.0936089 -0.101684585 -0.03821688 -0.47287723 -0.018868266 -0.74917966 -0.49550736 0.081351586
0.002316177 -0.4665799 0.28091285 -0.036559854 0.010068068 0.047805417 0.429124 -0.49383506
-0.08796877 0.46131134 -0.06343321 -0.037488174 -0.54565823 0.022599088 -0.19264756 -0.075563714
-0.044027045 0.03350748 0.029535268 -0.10712286 0.066954896 0.06904746 -0.52678937 -1.149956
0.014847034 -0.34891623 0.063245706 -0.7140151 -0.19798009 0.34967893 -0.292003 -0.51932824
0.025607554 -0.52930427 0.070391 0.04951481 0.06682146 -0.019248944 0.45003432 -0.06301913
0.0039984086 -0.57716775 -0.17483795 -0.050614584 -0.1911256 0.35405472 -0.5319726 0.03853451
0.11079168 -0.044424538 -0.5657154 -0.38377357 0.032699294 0.8165165 0.54864657 -0.009202761
-0.09123426 -0.0029511612 0.013600103 0.30733958 0.45876125 0.010652191 -0.03363401 0.40690553
0.01281502 0.10770875 0.05319131 0.49175987 -0.040845744 -0.039036725 0.57729846 -0.45475805
-0.07019212 0.3488424 0.014528124 0.054126248 -0.013945971 -0.02435592 -0.050891954 0.0049173534
-0.053478148 0.024048738 -0.08908079 -0.023760235 -0.13324936 0.067083314 -0.5980505 -0.61535066
-0.07721998 -0.0336364 -0.07311005 0.080884375 0.07868528 0.32367277 -0.2552087 0.18381263
0.30263487 -0.09372383 0.32608637 -0.1167965 -0.06105718 0.012347088 -0.8572293 0.115439825
-0.0035124973 0.29596293 0.029451836 -0.61417663 0.09749031 -0.001045939 -0.26205757 0.16775395
0.050149005 -0.6752043 0.29902598 0.06905707 -0.07663732 -0.1716681 -0.06179393 0.47068244
-0.032162793 0.07412513 0.0099427095 -0.253229 -0.058362667 -0.024762556 0.05902537 -0.13912791
0.013423961 -0.34600168 -0.05851443 0.07051308 0.061137196 0.049906537 -0.36392024 0.4684272
0.053930085 0.41585565 -0.030953065 -0.30157113 -0.11968365 -0.012281033 0.033462454 0.013285856
0.040139213 0.075475745 -0.056075267 -0.37101278 -1.3313344 -0.004787882 -0.14518048 0.5418701
00000000: 5c78 46bc 42a5 eabe b009 5fbc c4fb fbbd
00000010: caa3 453f 7b22 efbe fafb 213b f2c6 a6be
00000020: 4aeb ad3d 1113 7c3e 5df1 5b3d 8b88 6ebd
00000030: 791a 43bd df12 ea3e fd6b 33be 1bb3 843d
00000040: 3bc0 8e3c 8bc2 10be b7bc c4bf 535b a6bd
00000050: 8499 7ebe e2db 71be 2cad 7bbd 94a1 36bd
00000060: 9633 8abe b250 47bb be92 bebc 450f 12be
00000070: d7c4 5f3c c544 12bd 1935 62bf a8e2 f63c
00000080: de6a b4bd a23e aa3d 6c0a ae3d 696e 7dbf
00000090: a0ed b3bf cc33 13bc 573c 9b3d 9a4c 09bf
000000a0: e659 f53c ef4f 47bf 6c85 00bf 45ee f13d
000000b0: 5f06 3abd 8ebd 503c a1d9 063f 04a4 ce3e
000000c0: ca81 5abd 12f5 94bd 1c9a 833d b3f4 933d
000000d0: 1552 843c 468d 1abd 4320 f73c b011 7bbd
000000e0: b34d dd3c 395a 9bbc 0e05 6cbe 5b22 20bf
000000f0: 6c41 8b3e e361 99bd 21c1 98bd 8410 81be
00000100: c89b 62bf a7fb 873d c93b b9bb 8344 903e
00000110: ae18 173d 52cc 133f ad30 bf3d 7b24 b3be
00000120: 84f8 f93d 6a2a c7be 0f3c c83e 4b9e c9bc
00000130: e42d 1dbe 3453 8fbd dbf4 e63d 94ab 903d
00000140: 26eb 15bc 1c7b 89bd fb44 823d 88c5 2ebe
00000150: 6506 9dbe 0004 ba3d d097 bdbe e808 eabe
00000160: 1035 b63d 6bfd 0dbf 66d4 cebd 0719 cc3c
00000170: 10d5 673d d263 64be e504 a63d 6257 afbd
00000180: 06b6 bf3d 0240 d0bd 4e89 1cbd f71c f2be
00000190: 9f91 9abc 3dca 3fbf 24b3 fdbe a99b a63d
000001a0: 00cb 173b 90e3 eebe cfd3 8f3e c9bf 15bd
000001b0: 8af4 243c 9dcf 433d 24b6 db3e f3d7 fcbe
000001c0: f828 b4bd 0031 ec3e 45e9 81bd 338d 19bd
000001d0: 42b0 0bbf b921 b93c 6745 45be 26c1 9abd
000001e0: b455 34bd 243f 093d f2f3 f13c 3b63 dbbd
000001f0: a61f 893d c168 8d3d abdb 06bf c231 93bf
00000200: f940 733c 26a5 b2be f786 813d b2c9 36bf
00000210: 4bbb 4abe 1e09 b33e 6b81 95be b2f2 04bf
00000220: efc6 d13c 7c80 07bf 2829 903d 0bd0 4a3d
00000230: b1d9 883d f6af 9dbc e66a e63e 2c10 81bd
00000240: 1505 833b 44c1 13bf b808 33be 3d51 4fbd
00000250: 6eb6 43be a946 b53e 5b2f 08bf 5dd6 1d3d
00000260: c0e6 e23d 81f6 35bd b9d2 10bf f87d c4be
00000270: b2ef 053d 3a07 513f 1a74 0c3f 2dc7 16bc
00000280: 07d9 babd 4568 41bb f7d2 5e3c 9d5b 9d3e
00000290: c1e2 ea3e 8786 2e3c d1c3 09bd ec55 d03e
000002a0: 17f6 513c 6896 dc3d 22df 593d f3c7 fb3e
000002b0: de4d 27bd f9e4 1fbd d5c9 133f 0cd6 e8be
000002c0: e3c0 8fbd 799b b23e 5e07 6e3c 7cb3 5d3d
000002d0: a47d 64bc 1186 c7bc 1574 50bd c021 a13b
000002e0: e70b 5bbd dc01 c53c fd6f b6bd d3a4 c2bc
000002f0: 8572 08be fa62 893d d619 19bf 9f87 1dbf
00000300: 8225 9ebd 52c6 09bd b9ba 95bd b5a6 a53d
00000310: c025 a13d 70b8 a53e b7aa 82be 6139 3c3e
00000320: f5f2 9a3e 48f2 bfbd cbf4 a63e 0133 efbd
00000330: 1817 7abd 714b 4a3c 6173 5bbf b76b ec3d
00000340: ed31 66bb 7488 973e fa44 f13c ae3a 1dbf
00000350: 00a9 c73d e417 89ba 692c 86be b1c7 2b3e
00000360: 0b69 4d3d 30da 2cbf ef19 993e cb6d 8d3d
00000370: 07f4 9cbd c3c9 2fbe a21b 7dbd 4afd f03e
00000380: 22bd 03bd ebce 973d bfe6 223c 3ba7 81be
00000390: b10d 6fbd d8da cabc 96c4 713d 8c77 0ebe
000003a0: 2cf0 5b3c 2227 b1be d4ac 6fbd 2969 903d
000003b0: ff6a 7a3d cc6a 4c3d c153 babe b1d5 ef3e
000003c0: cbe5 5c3d 08eb d43e 4891 fdbc 8867 9abe
000003d0: b41c f5bd 6336 49bc ed0f 093d ebac 593c
000003e0: 0469 243d 0793 9a3d 2eaf 65bd 63f5 bdbe
000003f0: 2a69 aabf aae3 9cbb 31aa 14be 00b8 0a3f

fc.4.bias f4 [128]
0.3555608 0.40265733 0.5504833 0.29665187 0.009481278 -0.09337431 0.010207379 0.0050721886
-0.017681379 0.009300265 0.52363986 -0.24816634 0.21836972 -0.1897911 0.00685707 0.1046297
0.3035392 0.017564163 -0.078569844 0.074555166 -0.11601895 0.09829357 0.027358007 0.473181
0.90591204 0.25148174 -0.03709642 0.021557441 0.39759773 0.3537936 0.84093475 0.15969262
-0.04144292 -0.08905743 0.0158291 0.42013118 -0.091519326 0.08423516 -0.08581229 0.17541057
0.6159847 0.49944788 0.21118355 0.56360966 0.07394175 -0.027288537 0.08589688 -0.072058894
0.77584803 0.5241623 -0.08188064 -0.07283492 0.032000776 0.018363424 0.06965998 0.4132182
0.21813226 -0.11567769 -0.091718905 -0.5316477 0.34529757 0.18863593 0.5858862 0.0883442
0.1710549 -0.044186313 0.4208883 0.21080083 0.15951616 -0.018140016 0.18472207 -0.07180628
-0.046755962 -0.079909295 0.6274747 -0.14114152 0.5063615 0.23680922 -0.101428404 -0.048006285
0.14850892 -0.064433835 -0.071013555 0.040413518 0.4003688 -0.04153248 0.3821921 0.116058476
0.046303235 0.03593712 0.51470286 0.477716 0.48021892 0.31556538 0.13415724 0.013293624
0.09848867 0.11424652 0.10785556 0.05541148 0.28435194 -0.11925345 0.5242259 0.04589899
0.02147914 0.4171833 0.4449596 0.07225499 0.018278113 0.25745553 0.6197873 -0.15355256
0.57401204 -0.04871138 -0.01505346 0.17440385 0.5929407 0.3252435 0.31146398 0.024822013
0.0018136097 0.031207897 0.13279381 -0.016130812 -0.105561994 0.13620773 -0.16477577 0.28208745
00000000: 110c b63e 1a29 ce3e 79ec 0c3f c1e2 973e
00000010: 5d57 1b3c 083b bfbd da3c 273c 9a34 a63b
00000020: 8ad8 90bc 2460 183c 430d 063f 511f 7ebe
00000030: 509c 5f3e 9958 42be 46b1 e03b 1948 d63d
00000040: 7d69 9b3e b8e2 8f3c 3ae9 a0bd 61b0 983d
00000050: 589b edbd 244e c93d e61d e03c c844 f23e
00000060: dae9 673f 37c2 803e 6af2 17bd 3b99 b03c
00000070: ee91 cb3e 6f24 b53e 8047 573f 7686 233e
00000080: 0dc0 29bd be63 b6bd 07ac 813c 6f1b d73e
00000090: 7c6e bbbd 7c83 ac3d 5bbe afbd d49e 333e
000000a0: 2cb1 1d3f a2b7 ff3e 8040 583e b948 103f
000000b0: c66e 973d 368c dfbc b4ea af3d 9d93 93bd
000000c0: fa9d 463f 802f 063f 09b1 a7bd 792a 95bd
000000d0: 3f13 033d e46e 963c e4a9 8e3d 5691 d33e
000000e0: 105e 5f3e 6de8 ecbd 1fd7 bbbd 101a 08bf
000000f0: d8ca b03e c729 413e a3fc 153f ceed b43d
00000100: 0429 2f3e b5fc 34bd ac7e d73e 2cdc 573e
00000110: 3458 233e 5f9a 94bc c827 3d3e 2c0f 93bd
00000120: 2e83 3fbd 7ca7 a3bd 2fa2 203f 6787 10be
00000130: e8a0 013f 1e7e 723e b2b9 cfbd 3da2 44bd
00000140: b912 183e e3f5 83bd 8e6f 91bd a588 253d
00000150: 24fd cc3e f61d 2abd afae c33e 11b0 ed3d
00000160: 76a8 3d3d cd32 133d 91c3 033f 3197 f43e
00000170: 41df f53e c991 a13e 8460 093e 80cd 593c
00000180: 6eb4 c93d 14fa e93d 60e3 dc3d 26f7 623d
00000190: 9496 913e 273b f4bd ab33 063f 9400 3c3d
000001a0: 05f5 af3c 0d99 d53e bfd1 e33e 6dfa 933d
000001b0: fbbb 953c 36d1 833e 61aa 1e3f e23c 1dbe
000001c0: 74f2 123f 9685 47bd caa2 76bc ec96 323e
000001d0: f6ca 173f 5186 a63e 3578 9f3e 8957 cb3c
000001e0: a5b6 ed3a b4a7 ff3c 1afb 073e c424 84bc
000001f0: e330 d8bd 0a7a 0b3e fbba 28be c46d 903e

fc.6.weight f4 [128, 128]
-0.0353878 0.0256249 0.063854344 -0.07530383 0.0478671 -0.064749494 0.00080741645 -0.09087727
0.024229096 0.023739798 -0.13657829 -0.040844154 0.026755996 0.022943959 -0.076195635 -0.080820285
0.04156952 -0.068507254 0.06577922 0.05824758 0.012844526 -0.10575774 0.06337755 -0.060498763
-0.03875124 -0.11543378 0.03148046 -0.06457181 0.03201243 -0.031758748 -0.0746527 -0.03948571
0.0035128011 0.024480745 0.010501206 0.084185354 -0.110627465 0.038240466 0.057456154 0.036612626
-0.033528596 0.120438635 0.028057825 -0.109979205 -0.008226325 -0.02847827 0.026428822 -0.039027162
-0.14047499 -0.045094024 -0.045866393 0.074675635 0.005937908 -0.0367858 -0.003984848 -0.01796608
-0.12532851 0.059403602 -0.073572025 -0.14181955 0.028722072 0.029162688 -0.065908365 -0.030962251
-0.11327027 -0.06747143 -0.038143154 -0.02169421 -0.028903134 0.050438017 -0.030979767 -0.030317565
0.05153243 -0.15452252 0.092100985 0.030439401 -0.025852803 -0.12682469 -0.31396344 0.03451344
0.023930306 0.08713302 0.06978961 0.08006858 -0.061394926 0.03254996 0.02064563 0.009999736
-0.0026865138 -0.089361966 -0.036026947 -0.033614337 0.00341037 -0.10249898 -0.040821973 0.07694947
-0.06413074 0.0066859056 -0.011969462 -0.08545213 0.033046108 -0.033776622 -0.0366562 0.0052287644
0.01589747 -0.072762385 -0.04951918 0.029252568 -0.09198703 -0.07626174 -0.08397018 -0.10093582
0.016478773 0.07033015 0.047494702 -0.12596446 -0.08080362 -0.032089096 -0.06963215 -0.07887578
-0.05735437 0.027295385 -0.17587748 -0.031985708 -0.018734148 -0.13995893 0.0028934279 -0.1412464
-0.02017439 -0.08414263 0.0073317653 -0.013011196 0.03043583 0.031939156 -0.026675709 0.0540686
-0.054754034 -0.017466823 -0.0689613 0.020970365 0.026201326 0.05116186 -0.039827473 -0.021618847
-0.05778334 -0.032329172 -0.054001365 0.058062162 -0.019960515 0.016730718 -0.0648842 0.051532898
-0.06246181 -0.02720089 -0.06249204 0.019485109 -0.05121332 -0.04377556 0.028383529 -0.08541796
-0.059718754 -0.03315505 0.028472925 0.050658867 -0.017121557 0.054585543 0.0020877125 -0.031079803
0.009526905 -0.075329565 -0.020353936 -0.116895884 -0.031673398 0.015410384 -0.062546715 0.055446085
0.015523737 -0.057596397 0.00931105 -0.014989168 0.034410983 -0.014729891 -0.066593 -0.08249029
-0.06702992 0.058861215 0.053113583 -0.017860264 -0.0672481 0.010725308 -0.047240444 -0.061828457
-0.011391134 -0.027677378 0.08040549 0.08517532 -0.03602228 0.047996167 -0.043523554 0.00084100873
-0.07717563 -0.025465926 -0.0006039222 -0.0034120928 -0.03960989 0.05164854 -0.036493644 -0.06437477
-0.07623301 7.018504e-05 0.018891029 0.014132638 -0.07646861 0.059275255 -0.052976005 -0.08508722
0.042103764 0.0660551 -0.0515776 -0.016190298 -0.042302486 0.051141195 0.016036581 0.031197455
-0.043786317 0.046360448 -0.119681805 0.08276637 -0.035839245 -0.07051271 -0.032447487 0.07837885
-0.042356107 0.07656822 -0.07966644 -0.0646636 -0.08830068 -0.010585823 -0.054040942 -0.017583465
-0.005013611 -0.02850287 0.05711487 -0.068579495 -0.05488529 -0.04610055 -0.056507837 0.08097045
0.0793681 -0.037667334 -0.086316794 0.083308995 0.08824518 -0.067103684 -0.04236308 0.021875026
00000000: ccf2 10bd 4feb d13c 11c6 823d e538 9abd
00000010: 4b10 443d 629b 84bd cda8 533a dd1d babd
00000020: 197c c63c f779 c23c 2edb 0bbe 334c 27bd
00000030: 642f db3c f8f4 bb3c 750c 9cbd 1b85 a5bd
00000040: cd44 2a3d 884d 8cbd 41b7 863d 0495 6e3d
00000050: d971 523c 8497 d8bd 17cc 813d 8dcd 77bd
00000060: 9fb9 1ebd 8c68 ecbd a8f1 003d 3a3e 84bd
00000070: 771f 033d 7615 02bd 84e3 98bd c5bb 21bd
00000080: 0637 663b d88b c83c 400d 2c3c 5f69 ac3d
00000090: a790 e2bd 09a2 1c3d 2557 6b3d 1ff7 153d
000000a0: 4855 09bd 88a8 f63d 86d9 e53c c73c e1bd
000000b0: b5c7 06bc 434b e9bc 4281 d83c f2da 1fbd
000000c0: add8 0fbe 83b4 38bd 66de 3bbd 8aef 983d
000000d0: c892 c23b b5ac 16bd 5493 82bb 9a2d 93bc
000000e0: 1e56 00be 3151 733d eeac 96bd 2539 11be
000000f0: 8d4a eb3c 97e6 ee3c f7fa 86bd 8ca4 fdbc
00000100: 3efa e7bd 762e 8abd ff3b 1cbd 0eb8 b1bc
00000110: 44c6 ecbc 1898 4e3d 48c9 fdbc 8b5c f8bc
00000120: ab13 533d 273b 1ebe 719f bc3d 0d5c f93c
00000130: 42c9 d3bc 55de 01be d1bf a0be f75d 0d3d
00000140: 7d09 c43c cc72 b23d dbed 8e3d fffa a33d
00000150: 3f79 7bbd 1b53 053d 0621 a93c efd5 233c
00000160: 3910 30bb 6803 b7bd fe90 13bd 30af 09bd
00000170: 8480 5f3b fcea d1bd f134 27bd af97 9d3d
00000180: fa56 83bd 7115 db3b 901b 44bc 8701 afbd
00000190: 5b5b 073d 5b59 0abd d024 16bd 0e56 ab3b
000001a0: 693b 823c 7204 95bd a0d4 4abd 15a3 ef3c
000001b0: b263 bcbd 1d2f 9cbd 8ff8 abbd 70b7 cebd
000001c0: 7efe 863c 4109 903d ce89 423d d4fc 00be
000001d0: 5e7c a5bd db6f 03bd 4d9b 8ebd a089 a1bd
000001e0: 6aec 6abd 929a df3c 3a19 34be 7203 03bd
000001f0: 5b78 99bc 6551 0fbe aa9f 3d3b e5a2 10be
00000200: c344 a5bc f952 acbd 4e3f f03b e92c 55bc
00000210: 9054 f93c a2d2 023d 0487 dabc 0977 5d3d
00000220: c445 60bd 9516 8fbc 953b 8dbd 0bca ab3c
00000230: 2aa4 d63c 198f 513d 2222 23bd 021a b1bc
00000240: 39ae 6cbd 986b 04bd 8930 5dbd 97d2 6d3d
00000250: 3c84 a3bc dc0e 893c 02e2 84bd 2914 533d
00000260: f4d7 7fbd 67d4 debc a7f7 7fbd 3c9f 9f3c
00000270: 0fc5 51bd 004e 33bd 9384 e83c 9def aebd
00000280: a79b 74bd 97cd 07bd 0d40 e93c ac7f 4f3d
00000290: 8242 8cbc 1795 5f3d 01d2 083b 129b febc
000002a0: bc16 1c3c 6346 9abd 4cbd a6bc 1c67 efbd
000002b0: f7bb 01bd d67b 7c3c 7e18 80bd 6f1b 633d
000002c0: 4657 7e3c 33ea 6bbd 608d 183c 2195 75bc
000002d0: 88f2 0c3d a455 71bc e961 88bd abf0 a8bd
000002e0: fc46 89bd 7518 713d a18d 593d b04f 92bc
000002f0: 5fb9 89bd 34b9 2f3c 327f 41bd d63f 7dbd
00000300: e1a1 3abc abbb e2bc a2ab a43d 6670 ae3d
00000310: 198c 13bd a197 443d c145 32bd 2477 5c3a
00000320: 420e 9ebd eb9d d0bc 8850 1eba 6b9d 5fbb
00000330: fb3d 22bd 6b8d 533d 5c7a 15bd ebd6 83bd
00000340: 0d20 9cbd 4e30 9338 5cc1 9a3c 958c 673c
00000350: 939b 9cbd 9cca 723d 5efd 58bd 3542 aebd
00000360: ff74 2c3d e547 873d 0943 53bd 84a1 84bc
00000370: 5f45 2dbd 6e79 513d 265f 833c ce91 ff3c
00000380: 4859 33bd 74e4 3d3d bc1b f5bd 6a81 a93d
00000390: 2ccc 12bd f868 90bd a8e7 04bd 1785 a03d
000003a0: 997d 2dbd cdcf 9c3d 2928 a3bd 596e 84bd
000003b0: fdd6 b4bd 2970 2dbc 095a 5dbd 330b 90bc
000003c0: 3849 a4bb da7e e9bc 48f1 693d 6873 8cbd
000003d0: 66cf 60bd eed3 3cbd c374 67bd d6d3 a53d
000003e0: be8b a23d 1049 1abd dcc6 b0bd e89d aa3d
000003f0: e4b9 b43d a86d 89bd e984 2dbd 4133 b33c

fc.6.bias f4 [128]
-0.17751053 -0.07897681 -0.08993873 0.55544895 0.47734123 -0.14410506 0.44499725 -0.14575656
0.035090268 -0.15499038 0.34156373 0.42739588 0.43341714 0.58737 0.8361208 -0.02675763
0.006608554 0.9351239 0.5150767 -0.040049676 -0.06531636 0.10697619 -0.052828047 0.98758775
0.6263398 0.6301092 0.023906535 0.13631907 0.47766125 0.07413557 0.34435016 0.7165425
0.271008 -0.122348204 -0.09777346 0.41493753 0.5518642 -0.11468655 0.10122652 0.017270772
0.5183649 0.17071383 -0.091390654 0.40761012 -0.1026493 -0.06840233 0.27537888 0.35256147
0.6598005 -0.13820848 0.1646366 1.0094544 0.94527453 0.46467647 -0.14244355 -0.02625577
-0.059108324 0.64517754 0.40449473 0.567516 0.80583817 0.18067554 0.5382944 1.1714283
-0.1061089 -0.04676822 0.32637432 0.58299494 0.32694224 -0.10504762 -0.00013441229 0.5333659
0.49804494 -0.08757576 -0.04641025 -0.0765412 0.02084285 -0.10892607 0.3381408 0.16769277
0.42254156 -0.099626906 0.3674206 -0.13928115 -0.050150532 -0.044506513 1.1169461 -0.07046357
0.054206587 0.35805207 1.1583619 0.21317138 -0.08659692 0.69409186 1.1180094 -0.026118878
-0.12643081 0.59262216 0.042865552 0.014181601 -0.053590607 0.54506063 0.69333094 0.8775291
1.0129021 -0.03425855 0.56065077 -0.013088014 0.0361342 0.37480223 0.19043629 1.0416739
-0.04823902 0.9397652 0.77327466 0.30759883 0.4194383 0.5298349 -0.15267949 1.0736138
0.53843385 -0.3985372 0.25888583 0.3306249 0.62697095 -0.27165046 -0.0075018494 -0.039258752
00000000: 52c5 35be 98be a1bd cc31 b8bd e731 0e3f
00000010: 1266 f43e 4790 13be aed6 e33e 3541 15be
00000020: d0ba 0f3d ccb5 1ebe 71e1 ae3e a2d3 da3e
00000030: dae8 dd3e e15d 163f 030c 563f d132 dbbc
00000040: 928c d83b 4864 6f3f 11dc 033f 210b 24bd
00000050: 95c4 85bd 5516 db3d 3962 58bd 8dd2 7c3f
00000060: ce57 203f d64e 213f a3d7 c33c 3a97 0b3e
00000070: 0490 f43e 64d4 973d aa4e b03e 546f 373f
00000080: 90c1 8a3e b291 fabd 743d c8bd b172 d43e
00000090: f946 0d3f c8e0 eabd da4f cf3d 6f7b 8d3c
000000a0: 90b3 043f 9bcf 2e3e 062b bbbd 46b2 d03e
000000b0: cc39 d2bd 8516 8cbd 76fe 8c3e f082 b43e
000000c0: b0e8 283f 8686 0dbe 7f96 283e cd35 813f
000000d0: 83fd 713f 13ea ed3e b9dc 11be 5716 d7bc
000000e0: 921b 72bd 5b2a 253f ef19 cf3e bb48 113f
000000f0: 694b 4e3f 0203 393e a9cd 093f 5df1 953f
00000100: 9f4f d9bd 0890 3fbd 891a a73e 283f 153f
00000110: f964 a73e 3523 d7bd 06f1 0cb9 ab8a 083f
00000120: bfff fe3e ec5a b3bd ad18 3ebd a2c1 9cbd
00000130: a0be aa3c a214 dfbd ca20 ad3e a7b7 2b3e
00000140: 5e57 d83e 3109 ccbd 8e1e bc3e b89f 0ebe
00000150: a56a 4dbd 764c 36bd 17f8 8e3f 344f 90bd
00000160: ba07 5e3d 9a52 b73e 3445 943f 9949 5a3e
00000170: ba59 b1bd 01b0 313f ef1a 8f3f 42f7 d5bc
00000180: 1477 01be 16b6 173f ca93 2f3d f259 683c
00000190: d381 5bbd 1889 0b3f 237e 313f bfa5 603f
000001a0: c7a6 813f b152 0cbd cf86 0f3f 1c6f 56bc
000001b0: 7401 143d 14e6 bf3e bb01 433e 9255 853f
000001c0: 4796 45bd 7494 703f 54f5 453f 987d 9d3e
000001d0: 9ec0 d63e 43a3 073f 0358 1cbe 2d6c 893f
000001e0: cdd6 093f 110d ccbe af8c 843e ab47 a93e
000001f0: 2b81 203f c515 8bbe 13d2 f5bb c9cd 20bd

fc.8.weight f4 [3, 128]
0.0088327 -0.06961626 -0.05574127 -1.1942788 0.28394967 0.014977283 0.4310425 0.21145742
0.23046458 0.005752186 0.51724786 0.11697482 0.48723066 0.43000698 -1.1086082 -0.06524207
-0.24330913 -0.6552826 -1.23809 0.04742181 -0.44231096 -0.24885352 0.028376125 -0.6814228
-0.8281137 0.3262068 -0.48879507 -0.4670564 -0.40466583 0.6287818 0.53025395 -0.64319986
-0.15046129 -0.03728097 0.069136664 -0.79972327 0.11264743 0.0028741069 -0.5645049 0.011385449
0.24783604 0.5560083 -0.039801523 0.31136915 -0.012316796 0.034269296 0.1117091 0.48880467
0.33958885 -0.042551294 0.22865637 -0.6639499 -0.9431026 0.17354406 0.01051614 -0.025748074
-0.025340544 -0.12294713 0.35107872 0.18942975 -1.3162571 0.15442929 0.466361 -0.5938114
0.06388198 0.75311923 -0.5000456 0.39845338 0.42576453 -0.04360226 -0.3573858 0.22299817
0.21572682 -0.052576818 -0.16744266 -0.0020133653 -0.19958252 0.0039866935 0.44056833 0.34151646
0.29021367 0.008728526 0.40733197 -0.30726555 -0.3816122 -0.3949517 -0.92897296 0.022955341
-0.40315685 0.5220184 -0.6504006 0.09729338 -0.03805491 -0.9646729 -0.7909088 -0.37283835
0.020972455 0.44124985 0.30509186 0.022945594 -0.06815059 0.37992057 0.27821144 -1.1826376
0.3340119 0.020666603 0.37425902 -0.47566253 0.010896969 0.59346664 0.35246864 -0.64212567
0.022388197 -0.5999846 -0.4278422 -0.9111891 0.30100515 0.4792143 -0.03521247 -0.80203027
0.31089446 0.119485244 0.42741114 1.3595815 -1.5244632 0.13573174 0.3379346 -0.22929618
0.0071287747 0.053418618 -0.012669349 -0.40669623 0.16636045 -0.035926394 0.38873678 0.08526683
0.33776847 -0.037724506 0.1162447 0.049655695 0.2916002 0.4920409 -0.1423695 0.12074895
-0.40433505 -1.054059 -0.30159247 0.004573383 -0.16030382 -0.3099427 0.010131523 -0.8033114
-0.3248689 0.491328 -0.026672108 -1.0596555 -0.6968988 -0.46242386 0.17670414 -0.51073915
-0.22202903 -0.040787715 -0.010999483 -0.27170008 -0.5323991 -0.030579107 -0.28155833 -0.021301907
0.24337125 0.5842724 0.02211681 -0.062845625 -0.010768468 -0.009544116 -0.00623119 0.43861154
0.4712567 0.09864595 0.12331949 -1.0354702 -0.70318526 0.17185333 -0.0065648872 0.0036756897
0.036499105 0.07655999 0.08778532 0.5844837 -0.06874277 -0.1008386 0.4460416 -1.3311868
0.0075286785 -0.15023075 -0.21222602 0.61393213 0.2525905 0.045795158 -0.27331144 0.33456892
0.6170443 -0.040038045 0.3548606 0.0025579727 -0.21998976 -0.04087588 0.03754281 0.7586453
0.5854371 0.038345456 0.10119757 -0.17223713 -0.102514826 -0.24014838 -0.89765346 0.081673816
-0.040032573 -0.51641995 -1.1936659 0.022547368 0.007469413 -0.15882307 -1.1070817 -0.13621198
0.060891863 -0.19586179 0.14686376 -0.0013436414 -0.030943811 0.41836902 0.39817634 -0.95033365
-0.87297785 -0.004257682 0.47390017 -0.022650465 0.026903817 0.48322138 -0.041852888 -1.1449093
-0.028273463 -1.0184661 -0.3258316 -0.8163585 0.22637007 0.39013314 -0.025047442 -0.9938845
0.43082866 -0.13928558 -0.14456804 0.46984932 -0.30754206 -0.43303543 -0.0073250015 -0.2258996
00000000: 07b7 103c f892 8ebd f550 64bd 21de 98bf
00000010: da61 913e 4763 753c 9ab1 dc3e 4b88 583e
00000020: e8fe 6b3e d57c bc3b 5b6a 043f 7f90 ef3d
00000030: 4c76 f93e e029 dc3e e0e6 8dbf a29d 85bd
00000040: 0726 79be 9ac0 27bf bc79 9ebf 5f3d 423d
00000050: 9576 e2be 75d3 7ebe 0c75 e83c ba71 2ebf
00000060: 42ff 53bf 9404 a73e 5943 fabe 0422 efbe
00000070: 5c30 cfbe d8f7 203f b9be 073f bfa8 24bf
00000080: 8612 1abe eeb3 18bd 8697 8d3d aaba 4cbf
00000090: b2b3 e63d 835b 3c3b 6583 10bf 098a 3a3c
000000a0: bbc8 7d3e 8f56 0e3f ec06 23bd c76b 9f3e
000000b0: 63cc 49bc f65d 0c3d bec7 e43d 9b44 fa3e
000000c0: 97de ad3e 444a 2ebd e524 6a3e 9ff8 29bf
000000d0: 2c6f 71bf 89b5 313e e34b 2c3c a0ed d2bc
000000e0: f996 cfbc b4cb fbbd 97c0 b33e dff9 413e
000000f0: 1d7b a8bf b622 1e3e dec6 ee3e 0604 18bf
00000100: 8ed4 823d 6ccc 403f fd02 00bf 1502 cc3e
00000110: cffd d93e 4998 32bd 46fb b6be a259 643e
00000120: 7ee7 5c3e ca5a 57bd 1776 2bbe aaf2 03bb
00000130: 5c5f 4cbe cfa2 823b 2c92 e13e 3fdb ae3e
00000140: e396 943e 1702 0f3c d18d d03e e951 9dbe
00000150: ad62 c3be 1c37 cabe 2cd1 6dbf d70c bc3c
00000160: 936a cebe ffa2 053f a780 26bf c041 c73d
00000170: 77df 1bbd cef4 76bf 0079 4abf abe4 bebe
00000180: 6dce ab3c 80eb e13e 0035 9c3e 66f8 bb3c
00000190: 8992 8bbd f384 c23e bb71 8e3e ab60 97bf
000001a0: 9c03 ab3e 024d a93c e19e bf3e 0a8a f3be
000001b0: 3389 323c 6eed 173f c576 b43e 5962 24bf
000001c0: 7467 b73c 9798 19bf 220e dbbe b043 69bf
000001d0: 591d 9a3e 945b f53e f33a 10bd db51 4dbf
000001e0: 8f2d 9f3e aeb4 f43d a2d5 da3e c406 ae3f
000001f0: 9c21 c3bf 43fd 0a3e c405 ad3e 9ecc 6abe
00000200: 7f98 e93b 7bcd 5a3d 1a93 4fbc 7d3a d0be
00000210: 655a 2a3e 8e27 13bd 8208 c73e 60a0 ae3d
00000220: fdef ac3e 0385 1abd b411 ee3d c563 4b3d
00000230: 9f4c 953e c9ec fb3e 4fc9 11be 3a4b f73d
00000240: 0105 cfbe 68eb 86bf 546a 9abe 51dc 953b
00000250: af26 24be cfb0 9ebe b0fe 253c d1a5 4dbf
00000260: 3755 a6be 588f fb3e 777f dabc cba2 87bf
00000270: f667 32bf d2c2 ecbe eef1 343e cdbf 02bf
00000280: 945b 63be 0511 27bd 2d37 34bc 461c 8bbe
00000290: 4f4b 08bf 0981 fabc 6a28 90be 5681 aebc
000002a0: 5036 793e e092 153f 502e b53c 35b5 80bd
000002b0: 3a6e 30bc ed5e 1cbc 032f ccbb b191 e03e
000002c0: 8f48 f13e e306 ca3d ee8e fc3d 4a8a 84bf
000002d0: f303 34bf 52fa 2f3e 441e d7bb d7e3 703b
000002e0: 1680 153d 7ccb 9c3d cac8 b33d b9a0 153f
000002f0: 02c9 8cbd 7884 cebd 915f e43e 5464 aabf
00000300: 22b3 f63b 17d6 19be c751 59be a82a 1d3f
00000310: 8b53 813e b493 3b3d 7aef 8bbe 9e4c ab3e
00000320: 9ef6 1d3f effe 23bd 4ab0 b53e a9a3 273b
00000330: ff44 61be 776d 27bd 7dc6 193d 9436 423f
00000340: 35df 153f 2010 1d3d ac40 cf3d ee5e 30be
00000350: 4bf3 d1bd 75e9 75be 9ecc 65bf 9a44 a73d
00000360: 32f9 23bd 1934 04bf 0bca 98bf 42b5 b83c
00000370: fac1 f43b 84a2 22be dab4 8dbf 277b 0bbe
00000380: bf69 793d fe8f 48be 7463 163e 201d b0ba
00000390: e07d fdbc 7734 d63e c5dd cb3e 1149 73bf
000003a0: 7a7b 5fbf 0684 8bbb 0ba3 f23e 788d b9bc
000003b0: 6565 dc3c cb68 f73e ef6d 2bbd 638c 92bf
000003c0: c09d e7bc 195d 82bf 66d3 a6be dffc 50bf
000003d0: 8ecd 673e 88bf c73e 4b30 cdbc 376f 7ebf
000003e0: 9395 dc3e e1a0 0ebe a509 14be 1790 f03e
000003f0: 2776 9dbe d2b6 ddbe 9106 f0bb 3a52 67be

fc.8.bias f4 [3]
0.008577698 0.45811006 0.18126233
00000000: 7989 0c3c 678d ea3e d59c 393e
